…
fication Head\n    Flatten(),\n    Dense(256, activation='relu'),\n    BatchNormalization(),\n    Dropout(0.4),\n    Dense(num_classes, activation='softmax')\n])\n\nmodel.compile(\n    optimizer='adam',\n    loss='sparse_categorical_crossentropy',\n    metrics=['accuracy']\n)\n\nmodel.summary()\n\nModel: \"sequential_1\"\n\n\n\n┏━━━━━━━━━━━━━━━━━━━━━━━━━━━━━━━━━┳━━━━━━━━━━━━━━━━━━━━━━━━┳━━━━━━━━━━━━━━━┓\n┃ Layer (type)                    ┃ Output Shape           ┃       Param # ┃\n┡━━━━━━━━━━━━━━━━━━━━━━━━━━━━━━━━━╇━━━━━━━━━━━━━━━━━━━━━━━━╇━━━━━━━━━━━━━━━┩\n│ conv2d_4 (Conv2D)               │ (None, 100, 100, 32)   │           896 │\n├─────────────────────────────────┼────────────────────────┼───────────────┤\n│ batch_normalization_3           │ (None, 100, 100, 32)   │           128 │\n│ (BatchNormalization)            │                        │               │\n├─────────────────────────────────┼────────────────────────┼───────────────┤\n│ conv2d_5 (Conv2D)               │ (None, 98, 98, 32)     │         9,248 │\n├─────────────────────────────────┼────────────────────────┼───────────────┤\n│ max_pooling2d_2 (MaxPooling2D)  │ (None, 49, 49, 32)     │             0 │\n├─────────────────────────────────┼────────────────────────┼───────────────┤\n│ dropout_3 (Dropout)             │ (None, 49, 49, 32)     │             0 │\n├─────────────────────────────────┼────────────────────────┼───────────────┤\n│ conv2d_6 (Conv2D)               │ (None, 49, 49, 64)     │        18,496 │\n├─────────────────────────────────┼────────────────────────┼───────────────┤\n│ batch_normalization_4           │ (None, 49, 49, 64)     │           256 │\n│ (BatchNormalization)            │                        │               │\n├─────────────────────────────────┼────────────────────────┼───────────────┤\n│ conv2d_7 (Conv2D)               │ (None, 47, 47, 64)     │        36,928 │\n├─────────────────────────────────┼────────────────────────┼───────────────┤\n│ max_pooling2d_3 (MaxPooling2D)  │ (None, 23, 23, 64)     │             0 │\n├─────────────────────────────────┼────────────────────────┼───────────────┤\n│ dropout_4 (Dropout)             │ (None, 23, 23, 64)     │             0 │\n├─────────────────────────────────┼────────────────────────┼───────────────┤\n│ flatten_1 (Flatten)             │ (None, 33856)          │             0 │\n├─────────────────────────────────┼────────────────────────┼───────────────┤\n│ dense_2 (Dense)                 │ (None, 256)            │     8,667,392 │\n├─────────────────────────────────┼────────────────────────┼───────────────┤\n│ batch_normalization_5           │ (None, 256)            │         1,024 │\n│ (BatchNormalization)            │                        │               │\n├─────────────────────────────────┼────────────────────────┼───────────────┤\n│ dropout_5 (Dropout)             │ (None, 256)            │             0 │\n├─────────────────────────────────┼────────────────────────┼───────────────┤\n│ dense_3 (Dense)                 │ (None, 43)             │        11,051 │\n└─────────────────────────────────┴────────────────────────┴───────────────┘\n\n\n\n Total params: 8,745,419 (33.36 MB)\n\n\n\n Trainable params: 8,744,715 (33.36 MB)\n\n\n\n Non-trainable params: 704 (2.75 KB)\n\n\n\n\n# ==========================================\n# 4. Model Training\n# ==========================================\nprint(\"\\nStarting Model Training...\")\nhistory = model.fit(\
…
